…
[BT] payload format: one JSON object per line
[RUN] starting inference command:
[RUN] python3 -u jetson_live.py --device plughw:2,0 --model_name mn04_as --rate 16000 --channels 6 --channel-index 0 --seconds 2 --topk 5 --threshold 0.10 --min-db 30 --db-offset 80
[DOA] ReSpeaker DOA reader enabled.
device: cuda
model: mn04_as
audio device: plughw:2,0
record: 16000Hz, 6ch, 2s
channel-index: 0
min-db: 30.0 dB
db display rule: display_dB = dBFS + 80.0
Ctrl+C to stop
------------------------------------------------------------
MN(
  (features): Sequential(
    (0): ConvNormActivation(
      (0): Conv2d(1, 8, kernel_size=(3, 3), stride=(2, 2), padding=(1, 1), bias=False)
      (1): BatchNorm2d(8, eps=0.001, momentum=0.01, affine=True, track_running_stats=True)
      (2): Hardswish()
    )
    (1): InvertedResidual(
      (block): Sequential(
        (0): ConvNormActivation(
          (0): Conv2d(8, 8, kernel_size=(3, 3), stride=(1, 1), padding=(1, 1), groups=8, bias=False)
          (1): BatchNorm2d(8, eps=0.001, momentum=0.01, affine=True, track_running_stats=True)
          (2): ReLU(inplace=True)
        )
        (1): ConvNormActivation(
          (0): Conv2d(8, 8, kernel_size=(1, 1), stride=(1, 1), bias=False)
          (1): BatchNorm2d(8, eps=0.001, momentum=0.01, affine=True, track_running_stats=True)
        )
      )
    )
    (2): InvertedResidual(
      (block): Sequential(
        (0): ConvNormActivation(
          (0): Conv2d(8, 24, kernel_size=(1, 1), stride=(1, 1), bias=False)
          (1): BatchNorm2d(24, eps=0.001, momentum=0.01, affine=True, track_running_stats=True)
          (2): ReLU(inplace=True)
        )
        (1): ConvNormActivation(
          (0): Conv2d(24, 24, kernel_size=(3, 3), stride=(2, 2), padding=(1, 1), groups=24, bias=False)
          (1): BatchNorm2d(24, eps=0.001, momentum=0.01, affine=True, track_running_stats=True)
          (2): ReLU(inplace=True)
        )
        (2): ConvNormActivation(
          (0): Conv2d(24, 16, kernel_size=(1, 1), stride=(1, 1), bias=False)
          (1): BatchNorm2d(16, eps=0.001, momentum=0.01, affine=True, track_running_stats=True)
        )
      )
    )
    (3): InvertedResidual(
      (block): Sequential(
        (0): ConvNormActivation(
          (0): Conv2d(16, 32, kernel_size=(1, 1), stride=(1, 1), bias=False)
          (1): BatchNorm2d(32, eps=0.001, momentum=0.01, affine=True, track_running_stats=True)
          (2): ReLU(inplace=True)
        )
        (1): ConvNormActivation(
          (0): Conv2d(32, 32, kernel_size=(3, 3), stride=(1, 1), padding=(1, 1), groups=32, bias=False)
          (1): BatchNorm2d(32, eps=0.001, momentum=0.01, affine=True, track_running_stats=True)
          (2): ReLU(inplace=True)
        )
        (2): ConvNormActivation(
          (0): Conv2d(32, 16, kernel_size=(1, 1), stride=(1, 1), bias=False)
          (1): BatchNorm2d(16, eps=0.001, momentum=0.01, affine=True, track_running_stats=True)
        )
      )
    )
    (4): InvertedResidual(
      (block): Sequential(
        (0): ConvNormActivation(
          (0): Conv2d(16, 32, kernel_size=(1, 1), stride=(1, 1), bias=False)
          (1): BatchNorm2d(32, eps=0.001, momentum=0.01, affine=True, track_running_stats=True)
          (2): ReLU(inplace=True)
        )
        (1): ConvNormActivation(
          (0): Conv2d(32, 32, kernel_size=(5, 5), stride=(2, 2), padding=(2, 2), groups=32, bias=False)
          (1): BatchNorm2d(32, eps=0.001, momentum=0.01, affine=True, track_running_stats=True)
          (2): ReLU(inplace=True)
        )
        (2): ConcurrentSEBlock(
          (conc_se_layers): ModuleList(
            (0): SqueezeExcitation(
              (fc1): Linear(in_features=32, out_features=8, bias=True)
              (fc2): Linear(in_features=8, out_features=32, bias=True)
              (activation): ReLU()
              (scale_activation): Sigmoid()
            )
          )
        )
        (3): ConvNormActivation(
          (0): Conv2d(32, 16, kernel_size=(1, 1), stride=(1, 1), bias=False)
          (1): BatchNorm2d(16, eps=0.001, momentum=0.01, affine=True, track_running_stats=True)
        )
      )
    )
    (5): InvertedResidual(
      (block): Sequential(
        (0): ConvNormActivation(
          (0): Conv2d(16, 48, kernel_size=(1, 1), stride=(1, 1), bias=False)
          (1): BatchNorm2d(48, eps=0.001, momentum=0.01, affine=True, track_running_stats=True)
          (2): ReLU(inplace=True)
        )
        (1): ConvNormActivation(
          (0): Conv2d(48, 48, kernel_size=(5, 5), stride=(1, 1), padding=(2, 2), groups=48, bias=False)
          (1): BatchNorm2d(48, eps=0.001, momentum=0.01, affine=True, track_running_stats=True)
          (2): ReLU(inplace=True)
        )
        (2): ConcurrentSEBlock(
          (conc_se_layers): ModuleList(
            (0): SqueezeExcitation(
              (fc1): Linear(in_features=48, out_features=16, bias=True)
              (fc2): Linear(in_features=16, out_features=48, bias=True)
              (activation): ReLU()
              (scale_activation): Sigmoid()
            )
          )
        )
        (3): ConvNormActivation(
          (0): Conv2d(48, 16, kernel_size=(1, 1), stride=(1, 1), bias=False)
          (1): BatchNorm2d(16, eps=0.001, momentum=0.01, affine=True, track_running_stats=True)
        )
      )
    )
    (6): InvertedResidual(
      (block): Sequential(
        (0): ConvNormActivation(
          (0): Conv2d(16, 48, kernel_size=(1, 1), stride=(1, 1), bias=False)
          (1): BatchNorm2d(48, eps=0.001, momentum=0.01, affine=True, track_running_stats=True)
          (2): ReLU(inplace=True)
        )
        (1): ConvNormActivation(
          (0): Conv2d(48, 48, kernel_size=(5, 5), stride=(1, 1), padding=(2, 2), groups=48, bias=False)
          (1): BatchNorm2d(48, eps=0.001, momentum=0.01, affine=True, track_running_stats=True)
          (2): ReLU(inplace=True)
        )
        (2): ConcurrentSEBlock(
          (conc_se_layers): ModuleList(
            (0): SqueezeExcitation(
              (fc1): Linear(in_features=48, out_features=16, bias=True)
              (fc2): Linear(in_features=16, out_features=48, bias=True)
              (activation): ReLU()
              (scale_activation): Sigmoid()
            )
          )
        )
        (3): ConvNormActivation(
          (0): Conv2d(48, 16, kernel_size=(1, 1), stride=(1, 1), bias=False)
          (1): BatchNorm2d(16, eps=0.001, momentum=0.01, affine=True, track_running_stats=True)
        )
      )
    )
    (7): InvertedResidual(
      (block): Sequential(
        (0): ConvNormActivation(
          (0): Conv2d(16, 96, kernel_size=(1, 1), stride=(1, 1), bias=False)
          (1): BatchNorm2d(96, eps=0.001, momentum=0.01, affine=True, track_running_stats=True)
          (2): Hardswish()
        )
        (1): ConvNormActivation(
          (0): Conv2d(96, 96, kernel_size=(3, 3), stride=(2, 2), padding=(1, 1), groups=96, bias=False)
          (1): BatchNorm2d(96, eps=0.001, momentum=0.01, affine=True, track_running_stats=True)
          (2): Hardswish()
        )
        (2): ConvNormActivation(
          (0): Conv2d(96, 32, kernel_size=(1, 1), stride=(1, 1), bias=False)
          (1): BatchNorm2d(32, eps=0.001, momentum=0.01, affine=True, track_running_stats=True)
        )
      )
    )
    (8): InvertedResidual(
      (block): Sequential(
        (0): ConvNormActivation(
          (0): Conv2d(32, 80, kernel_size=(1, 1), stride=(1, 1), bias=False)
          (1): BatchNorm2d(80, eps=0.001, momentum=0.01, affine=True, track_running_stats=True)
          (2): Hardswish()
        )
        (1): ConvNormActivation(
          (0): Conv2d(80, 80, kernel_size=(3, 3), stride=(1, 1), padding=(1, 1), groups=80, bias=False)
          (1): BatchNorm2d(80, eps=0.001, momentum=0.01, affine=True, track_running_stats=True)
          (2): Hardswish()
        )
        (2): ConvNormActivation(
          (0): Conv2d(80, 32, kernel_size=(1, 1), stride=(1, 1), bias=False)
          (1): BatchNorm2d(32, eps=0.001, momentum=0.01, affine=True, track_running_stats=True)
        )
      )
    )
    (9): InvertedResidual(
      (block): Sequential(
        (0): ConvNormActivation(
          (0): Conv2d(32, 72, kernel_size=(1, 1), stride=(1, 1), bias=False)
          (1): BatchNorm2d(72, eps=0.001, momentum=0.01, affine=True, track_running_stats=True)
          (2): Hardswish()
        )
        (1): ConvNormActivation(
          (0): Conv2d(72, 72, kernel_size=(3, 3), stride=(1, 1), padding=(1, 1), groups=72, bias=False)
          (1): BatchNorm2d(72, eps=0.001, momentum=0.01, affine=True, track_running_stats=True)
          (2): Hardswish()
        )
        (2): ConvNormActivation(
          (0): Conv2d(72, 32, kernel_size=(1, 1), stride=(1, 1), bias=False)
          (1): BatchNorm2d(32, eps=0.001, momentum=0.01, affine=True, track_running_stats=True)
        )
      )
    )
    (10): InvertedResidual(
      (block): Sequential(
        (0): ConvNormActivation(
          (0): Conv2d(32, 72, kernel_size=(1, 1), stride=(1, 1), bias=False)
          (1): BatchNorm2d(72, eps=0.001, momentum=0.01, affine=True, track_running_stats=True)
          (2): Hardswish()
        )
        (1): ConvNormActivation(
          (0): Conv2d(72, 72, kernel_size=(3, 3), stride=(1, 1), padding=(1, 1), groups=72, bias=False)
          (1): BatchNorm2d(72, eps=0.001, momentum=0.01, affine=True, track_running_stats=True)
          (2): Hardswish()
        )
        (2): ConvNormActivation(
          (0): Conv2d(72, 32, kernel_size=(1, 1), stride=(1, 1), bias=False)
          (1): BatchNorm2d(32, eps=0.001, momentum=0.01, affine=True, track_running_stats=True)
        )
      )
    )
    (11): InvertedResidual(
      (block): Sequential(
        (0): ConvNormActivation(
          (0): Conv2d(32, 192, kernel_size=(1, 1), stride=(1, 1), bias=False)
          (1): BatchNorm2d(192, eps=0.001, momentum=0.01, affine=True, track_running_stats=True)
          (2): Hardswish()
        )
        (1): ConvNormActivation(
          (0): Conv2d(192, 192, kernel_size=(3, 3), stride=(1, 1), padding=(1, 1), groups=192, bias=False)
          (1): BatchNorm2d(192, eps=0.001, momentum=0.01, affine=True, track_running_stats=True)
          (2): Hardswish()
        )
        (2): ConcurrentSEBlock(
          (conc_se_layers): ModuleList(
            (0): SqueezeExcitation(
              (fc1): Linear(in_features=192, out_features=48, bias=True)
              (fc2): Linear(in_features=48, out_features=192, bias=True)
              (activation): ReLU()
              (scale_activation): Sigmoid()
            )
          )
        )
        (3): ConvNormActivation(
          (0): Conv2d(192, 48, kernel_size=(1, 1), stride=(1, 1), bias=False)
          (1): BatchNorm2d(48, eps=0.001, momentum=0.01, affine=True, track_running_stats=True)
        )
      )
    )
    (12): InvertedResidual(
      (block): Sequential(
        (0): ConvNormActivation(
          (0): Conv2d(48, 272, kernel_size=(1, 1), stride=(1, 1), bias=False)
          (1): BatchNorm2d(272, eps=0.001, momentum=0.01, affine=True, track_running_stats=True)
          (2): Hardswish()
        )
        (1): ConvNormActivation(
          (0): Conv2d(272, 272, kernel_size=(3, 3), stride=(1, 1), padding=(1, 1), groups=272, bias=False)
          (1): BatchNorm2d(272, eps=0.001, momentum=0.01, affine=True, track_running_stats=True)
          (2): Hardswish()
        )
        (2): ConcurrentSEBlock(
          (conc_se_layers): ModuleList(
            (0): SqueezeExcitation(
              (fc1): Linear(in_features=272, out_features=72, bias=True)
              (fc2): Linear(in_features=72, out_features=272, bias=True)
              (activation): ReLU()
              (scale_activation): Sigmoid()
            )
          )
        )
        (3): ConvNormActivation(
          (0): Conv2d(272, 48, kernel_size=(1, 1), stride=(1, 1), bias=False)
          (1): BatchNorm2d(48, eps=0.001, momentum=0.01, affine=True, track_running_stats=True)
        )
      )
    )
    (13): InvertedResidual(
      (block): Sequential(
        (0): ConvNormActivation(
          (0): Conv2d(48, 272, kernel_size=(1, 1), stride=(1, 1), bias=False)
          (1): BatchNorm2d(272, eps=0.001, momentum=0.01, affine=True, track_running_stats=True)
          (2): Hardswish()
        )
        (1): ConvNormActivation(
          (0): Conv2d(272, 272, kernel_size=(5, 5), stride=(2, 2), padding=(2, 2), groups=272, bias=False)
          (1): BatchNorm2d(272, eps=0.001, momentum=0.01, affine=True, track_running_stats=True)
          (2): Hardswish()
        )
        (2): ConcurrentSEBlock(
          (conc_se_layers): ModuleList(
            (0): SqueezeExcitation(
              (fc1): Linear(in_features=272, out_features=72, bias=True)
              (fc2): Linear(in_features=72, out_features=272, bias=True)
              (activation): ReLU()
              (scale_activation): Sigmoid()
            )
          )
        )
        (3): ConvNormActivation(
          (0): Conv2d(272, 64, kernel_size=(1, 1), stride=(1, 1), bias=False)
          (1): BatchNorm2d(64, eps=0.001, momentum=0.01, affine=True, track_running_stats=True)
        )
      )
    )
    (14): InvertedResidual(
      (block): Sequential(
        (0): ConvNormActivation(
          (0): Conv2d(64, 384, kernel_size=(1, 1), stride=(1, 1), bias=False)
          (1): BatchNorm2d(384, eps=0.001, momentum=0.01, affine=True, track_running_stats=True)
          (2): Hardswish()
        )
        (1): ConvNormActivation(
          (0): Conv2d(384, 384, kernel_size=(5, 5), stride=(1, 1), padding=(2, 2), groups=384, bias=False)
          (1): BatchNorm2d(384, eps=0.001, momentum=0.01, affine=True, track_running_stats=True)
          (2): Hardswish()
        )
        (2): ConcurrentSEBlock(
          (conc_se_layers): ModuleList(
            (0): SqueezeExcitation(
              (fc1): Linear(in_features=384, out_features=96, bias=True)
              (fc2): Linear(in_features=96, out_features=384, bias=True)
              (activation): ReLU()
              (scale_activation): Sigmoid()
            )
          )
        )
        (3): ConvNormActivation(
          (0): Conv2d(384, 64, kernel_size=(1, 1), stride=(1, 1), bias=False)
          (1): BatchNorm2d(64, eps=0.001, momentum=0.01, affine=True, track_running_stats=True)
        )
      )
    )
    (15): InvertedResidual(
      (block): Sequential(
        (0): ConvNormActivation(
          (0): Conv2d(64, 384, kernel_size=(1, 1), stride=(1, 1), bias=False)
          (1): BatchNorm2d(384, eps=0.001, momentum=0.01, affine=True, track_running_stats=True)
          (2): Hardswish()
        )
        (1): ConvNormActivation(
          (0): Conv2d(384, 384, kernel_size=(5, 5), stride=(1, 1), padding=(2, 2), groups=384, bias=False)
          (1): BatchNorm2d(384, eps=0.001, momentum=0.01, affine=True, track_running_stats=True)
          (2): Hardswish()
        )
        (2): ConcurrentSEBlock(
          (conc_se_layers): ModuleList(
            (0): SqueezeExcitation(
              (fc1): Linear(in_features=384, out_features=96, bias=True)
              (fc2): Linear(in_features=96, out_features=384, bias=True)
              (activation): ReLU()
              (scale_activation): Sigmoid()
            )
          )
        )
        (3): ConvNormActivation(
          (0): Conv2d(384, 64, kernel_size=(1, 1), stride=(1, 1), bias=False)
          (1): BatchNorm2d(64, eps=0.001, momentum=0.01, affine=True, track_running_stats=True)
        )
      )
    )
    (16): ConvNormActivation(
      (0): Conv2d(64, 384, kernel_size=(1, 1), stride=(1, 1), bias=False)
      (1): BatchNorm2d(384, eps=0.001, momentum=0.01, affine=True, track_running_stats=True)
      (2): Hardswish()
    )
  )
  (classifier): Sequential(
    (0): AdaptiveAvgPool2d(output_size=1)
    (1): Flatten(start_dim=1, end_dim=-1)
    (2): Linear(in_features=384, out_features=512, bias=True)
    (3): Hardswish()
    (4): Dropout(p=0.2, inplace=True)
    (5): Linear(in_features=512, out_features=527, bias=True)
  )
)
Warning: FMAX is None setting to 15000 
[03:44:26] infer=117.731s total=120.880s db=47.3dB | Fowl 0.223 / Chicken, rooster 0.207 / Bird 0.179 | DOA 남
[BT_JSON] {"type":"sound_result","status":"ok","source":"jetson_nano","sent_at":"2026-05-24T03:44:26+0000","time":"03:44:26","base_label":"Fowl","label":"Fowl [남]","score":0.223,"infer_sec":117
…
